…
                            _, predicted = torch.max(logits, dim=1)
                            input_token = predicted.unsqueeze(1)
                        else:
                            input_token = x[:, j+1].unsqueeze(1)
                else:
                    _, predicted = torch.max(logits, dim=1)
                    input_token = predicted.unsqueeze(1)

==========================================================================================
Layer (type:depth-idx)                   Output Shape              Param #
==========================================================================================
LSTMLarge1                               [1024, 371, 4]            --
├─Embedding: 1-1                         [1024, 371, 128]          640
├─Dropout: 1-2                           [1024, 371, 128]          --
├─LSTM: 1-3                              [1024, 371, 512]          5,517,312
├─Dropout: 1-4                           [1024, 371, 512]          --
├─Sequential: 1-5                        [1024, 371, 4]            --
│    └─Linear: 2-1                       [1024, 371, 512]          262,656
│    └─GELU: 2-2                         [1024, 371, 512]          --
│    └─Linear: 2-3                       [1024, 371, 512]          262,656
│    └─GELU: 2-4                         [1024, 371, 512]          --
│    └─Linear: 2-5                       [1024, 371, 4]            2,052
==========================================================================================
Total params: 6,045,316
Trainable params: 6,045,316
Non-trainable params: 0
Total mult-adds (T): 2.10
==========================================================================================
Input size (MB): 3.04
Forward/backward pass size (MB): 5069.44
Params size (MB): 24.18
Estimated Total Size (MB): 5096.66
==========================================================================================
==========================================================================================
Layer (type:depth-idx)                   Output Shape              Param #
==========================================================================================
LSTMLarge1                               [1024, 371, 4]            --
├─Embedding: 1-1                         [1024, 371, 128]          640
├─Dropout: 1-2                           [1024, 371, 128]          --
├─LSTM: 1-3                              [1024, 371, 512]          5,517,312
├─Dropout: 1-4                           [1024, 371, 512]          --
├─Sequential: 1-5                        [1024, 371, 4]            --
│    └─Linear: 2-1                       [1024, 371, 512]          262,656
│    └─GELU: 2-2                         [1024, 371, 512]          --
│    └─Linear: 2-3                       [1024, 371, 512]          262,656
│    └─GELU: 2-4                         [1024, 371, 512]          --
│    └─Linear: 2-5                       [1024, 371, 4]            2,052
==========================================================================================
Total params: 6,045,316
Trainable params: 6,045,316
Non-trainable params: 0
Total mult-adds (T): 2.10
==========================================================================================
Input size (MB): 3.04
Forward/backward pass size (MB): 5069.44
Params size (MB): 24.18
Estimated Total Size (MB): 5096.66
…
